model/pose_detector_angle.tflite (tflite, 3720 bytes, 6 tensors)

arith.constant f4 [9, 10]
-0.28995913 -0.31062874 -0.12097754 0.49505922 -0.24613518 -0.0984163 0.5126481 -0.15965797
0.2555175 -0.2650782 0.54870135 0.023984434 0.016501168 -0.17468207 0.0027173061 0.34747726
0.42145526 -0.20217966 0.443151 0.13177957 0.27411416 0.23821151 0.44294244 -0.17907386
-0.16625156 -0.40431976 0.28131402 -0.46340623 0.5461633 -0.19107589 0.4137108 0.14798172
-0.21489301 0.33892632 0.1835561 -0.006461728 0.21477112 0.14494196 0.15998 0.15305167
0.02056757 0.4016355 -0.15824321 0.052046195 0.2985863 0.26532227 0.38308424 0.5638631
0.23236112 0.04608217 0.29925296 0.6028613 -0.19669682 0.3331735 0.45601535 -0.035278812
0.16616826 0.00763786 -0.28592682 -0.004415096 -0.29226124 0.2558848 0.3911186 0.17693222
0.34303537 0.03835447 -0.11246439 0.0029353646 -0.26872727 0.17362121 -0.30951792 0.3410483
-0.06509007 0.42938334 0.0051028957 -0.21999657 0.16474278 0.10020507 0.13831866 0.40723836
-0.14145935 0.23634645 0.30448478 -0.06976587 0.75813407 0.11666471 -0.10328013 0.14523262
-0.3235895 -0.017593734
00000000: 8675 94be bb0a 9fbe 13c3 f7bd 6778 fd3e
00000010: dc0a 7cbe 7c8e c9bd e83c 033f 617d 23be
00000020: 31d3 823e 54b8 87be b177 0c3f 017b c43c
00000030: 752d 873c dbdf 32be d514 323b 8ae8 b13e
00000040: fcc8 d73e 2f08 4fbe b0e4 e23e 39f1 063e
00000050: b158 8c3e b8ed 733e 5ac9 e23e 235f 37be
00000060: d93d 2abe 0003 cfbe 6408 903e 9543 edbe
00000070: 5cd1 0b3f 66a9 43be e7d1 d33e 8588 173e
00000080: ea0c 5cbe c087 ad3e 21f6 3b3e e7bc d3bb
00000090: f6ec 5b3e aa6b 143e ccd1 233e 94b9 1c3e
000000a0: 527d a83c 2ba3 cd3e 820a 22be 642e 553d
000000b0: 4ee0 983e 52d8 873e 9e23 c43e 5559 103f
000000c0: 13f0 6d3e a8c0 3c3d af37 993e 1e55 1a3f
000000d0: e46a 49be b895 aa3e d87a e93e 8480 10bd
000000e0: 0328 2a3e 0347 fa3b 0065 92be 82ac 90bb
000000f0: 44a3 95be 5503 833e b240 c83e b82d 353e
00000100: 55a2 af3e 9419 1d3d bb53 e6bd 3f5f 403b
00000110: 9f96 89be c2c9 313e 2279 9ebe e29d ae3e
00000120: f14d 85bd 22d8 db3e 3136 a73b c846 61be
00000130: 55b2 283e 5138 cd3d 68a3 0d3e 8c81 d03e
00000140: b8da 10be ce04 723e 6ee5 9b3e 69e1 8ebd
00000150: 1315 423f e8ed ee3d 8884 d3bd dcb7 143e
00000160: 86ad a5be bc20 90bc

arith.constant1 f4 [10, 20]
0.22637457 -0.25193155 0.07042674 0.23177741 0.30000854 -0.25576577 -0.13069677 0.19565506
0.28954065 -0.42255652 0.12866238 0.025220651 -0.17947128 0.44517002 0.031005872 -0.41026428
0.36791936 0.15301993 -0.26128802 0.34766144 -0.08357348 -0.58942 -0.08769081 -0.074130416
-0.21248218 -0.08281156 -0.17471425 -0.07790266 -0.4824681 -0.23817424 0.2580709 -0.19242263
-0.26031095 0.054068055 -0.2664505 -0.014928951 -0.20299177 0.071104355 -0.2839586 -0.2158981
0.16652533 0.16838689 0.16424681 -0.4347112 -0.10890633 0.08016438 0.016615964 -0.079832576
-0.2518158 0.06389154 0.21708441 -0.103595756 0.1685195 0.45563263 -0.18181188 0.06770043
-0.2204156 0.367542 -0.24110469 0.36627924 0.69915885 0.37894154 0.13729025 0.25311324
-0.30995712 0.1269518 0.30996194 -0.12027025 0.020968951 0.0707939 0.2808199 0.05451845
0.19967842 -0.30806208 0.11992903 0.14981282 0.5174898 0.4921869 0.21965003 0.27470082
-0.33436048 -0.23095556 -0.08583852 0.02757232 -0.29459035 0.025955493 -0.24644643 0.03426636
-0.20082793 0.012911255 0.25727493 0.09898575 0.21145028 -0.21900792 -0.17176674 0.35888144
-0.11183739 -0.03374018 -0.2401164 0.23432758 0.25127855 -0.015142164 -0.4272411 0.21297365
0.3495661 -0.024968652 -0.40843335 -0.5233881 0.118876904 -0.341761 -0.2632714 0.011151015
-0.29044652 -0.24959928 -0.24169518 -0.19164851 0.3753735 0.0011354056 0.090470545 0.048888374
-0.05675156 -0.17829084 -0.27063385 0.16074125 -0.17167291 0.028340232 -0.41932735 -0.29501885
-0.13297854 0.13899116 -0.040053114 0.2606223 0.11429381 0.13726786 0.025120163 -0.08256336
0.2183529 -0.30680835 0.23612757 0.18875363 -0.42170936 0.27268404 -0.11561842 -0.1554783
0.24676263 0.11368884 -0.21747822 0.043755885 0.20301865 0.07882609 -0.23866294 -0.33190832
0.090088665 0.16468477 0.20723258 0.06140031 0.20546 0.07717733 -0.2859943 -0.0057995985
-0.21369065 -0.09839188 -0.11404883 -0.3093456 0.28553116 -0.18686242 -0.50291413 -0.049445014
0.2950427 -0.14898165 -0.18605529 0.13404086 -0.36582288 -0.43637568 -0.15489024 -0.18733457
-0.29549953 0.20746064 -0.25528058 -0.028361056 -0.0834352 -0.20373271 0.013118195 0.020810453
-0.13325241 -0.007559643 -0.111055456 -0.41588914 -0.1387583 0.10961089 -0.18139637 -0.46949703
-0.16934273 0.34363467 0.3631955 -0.27990407 0.2751989 0.0016705086 0.04366149 -0.3584037
00000000: bcce 673e 2cfd 80be e53b 903d 0f57 6d3e
00000010: b89a 993e bbf3 82be 60d5 05be cd59 483e
00000020: ac3e 943e 5459 d8be 12c0 033e 8a9b ce3c
00000030: 52c7 37be 53ed e33e 0700 fe3c 290e d2be
00000040: ed5f bc3e 42b1 1c3e 8bc7 85be ae00 b23e
00000050: 9328 abbd 3be4 16bf 3d97 b3bd b0d1 97bd
00000060: ee94 59be 1b99 a9bd 4be8 32be 6e8b 9fbd
00000070: 0f06 f7be f3e3 73be de21 843e 700a 45be
00000080: 7a47 85be 7776 5d3d 336c 88be 8f98 74bc
00000090: 13dd 4fbe 299f 913d 0663 91be 6414 5dbe
000000a0: 9e85 2a3e 9d6d 2c3e 5130 283e 7792 debe
000000b0: 480a dfbd 392d a43d 341e 883c 437f a3bd
000000c0: 00ee 80be 91d9 823d 604b 5e3e 032a d4bd
000000d0: 6090 2c3e ae48 e93e e52c 3abe 86a6 8a3d
000000e0: a1b4 61be 772e bc3e 26e4 76be f488 bb3e
000000f0: 13fc 323f a004 c23e d195 0c3e 0f98 813e
00000100: b3b2 9ebe a7ff 013e 55b3 9e3e 4050 f6bd
00000110: 14c7 ab3c 64fc 903d a0c7 8f3e bd4e 5f3d
00000120: 8078 4c3e 50ba 9dbe 5a9d f53d 8868 193e
00000130: 367a 043f ecff fb3e f0eb 603e 96a5 8c3e
00000140: 4c31 abbe 9d7f 6cbe 1bcc afbd 59df e13c
00000150: 8cd4 96be 9da0 d43c 745c 7cbe e25a 0c3d
00000160: d6a5 4dbe ba89 533c 8ab9 833e 0ab9 ca3d
00000170: 6c86 583e 9d43 60be 9fe3 2fbe 4fbf b73e
00000180: 000b e5bd 2533 0abd 13e1 75be 92f3 6f3e
00000190: 95a7 803e d716 78bc 58bf dabe c415 5a3e
000001a0: 54fa b23e 0f8b ccbc 2d1e d1be c3fc 05bf
000001b0: bc75 f33d 4cfb aebe 82cb 86be bfb2 363c
000001c0: 68b5 94be f496 7fbe f17e 77be 823f 44be
000001d0: f530 c03e e4d1 943a 9f48 b93d 2d3f 483d
000001e0: 5374 68bd e091 36be 8590 8abe 5b99 243e
000001f0: 06cb 2fbe c629 e83c 13b2 d6be b60c 97be
00000200: 872b 08be b353 0e3e bc0e 24bd 4970 853e
00000210: e012 ea3d f28f 0c3e cdc8 cd3c fb16 a9bd
00000220: e797 5f3e fc15 9dbe 6dcb 713e a248 413e
00000230: 4aea d7be 3e9d 8b3e 5ac9 ecbd b435 1fbe
00000240: 58af 7c3e b2d5 e83d 9cb2 5ebe 5f39 333d
00000250: 1fe4 4f3e 936f a13d 0f64 74be e3ef a9be
00000260: 6880 b83d 20a3 283e c734 543e e47e 7b3d
00000270: 1b64 523e 260f 9e3d d86d 92be 8f0a bebb
00000280: b9d1 5abe af81 c9bd 6f92 e9bd 8c62 9ebe
00000290: 2431 923e dd58 3fbe fbbe 00bf db86 4abd
000002a0: d60f 973e a58e 18be 4785 3ebe 0242 093e
000002b0: 234d bbbe a26c dfbe 8c9b 1ebe a2d4 3fbe
000002c0: b74b 97be 9070 543e 23b4 82be 7255 e8bc
000002d0: 13e0 aabd 4f9f 50be b3ed 563c af7a aa3c
000002e0: 5273 08be e2b6 f7bb 0b71 e3bd 6cef d4be
000002f0: a816 0ebe ad7b e03d f8bf 39be ea61 f0be
00000300: 2e68 2dbe e2f0 af3e c3f4 b93e 964f 8fbe
00000310: dfe6 8c3e f8f4 da3a 64d6 323d b180 b7be

arith.constant2 f4 [9]
-0.4665329 -0.45419014 0.5272608 -0.6292256 0.05571701 0.63755864 -0.2633383 -1.2003798
1.4083816
00000000: 66dd eebe 9c8b e8be 90fa 063f ee14 21bf
00000010: 8537 643d 0b37 233f 47d4 86be 0ca6 99bf
00000020: d945 b43f

arith.constant3 f4 [10]
0.8286228 -0.40750372 1.441373 -1.7639551 0.05645378 -0.20096053 -0.5373109 0.2405591
-0.49375156 -0.82305473
00000000: a020 543f 54a4 d0be e97e b83f 48c9 e1bf
00000010: 143c 673d 99c8 4dbe 358d 09bf 2055 763e
00000020: 01cd fcbe b7b3 52bf

sequential_2_1/dense_6_1/Add/ReadVariableOp f4 [20]
-0.10948805 -0.10677152 -0.13840744 -0.048428874 0.0 -0.07294563 -0.1298332 0.0027268452
-0.23513174 -0.0077661024 -0.2964303 -0.1888023 0.0 -0.06831198 -0.1847207 -0.03595323
0.02716364 -0.15560514 -0.06490184 -0.2801364
00000000: 453b e0bd 07ab dabd aeba 0dbe 5b5d 46bd
00000010: 0000 0000 8564 95bd fff2 04be dfb4 323b
00000020: 60c6 70be ca7a febb b6c5 97be 6455 41be
00000030: 0000 0000 27e7 8bbd 6c27 3dbe b243 13bd
00000040: 4886 de3c f456 1fbe 42eb 84bd 0a6e 8fbe

sequential_2_1/dense_6_1/MatMul f4 [20, 4]
-0.3982926 -0.048129264 0.19141357 0.110342905 -0.4756374 -0.508421 -0.027583243 0.45264995
-0.33795717 0.20260489 -0.31511006 0.36470082 -0.089186646 -0.119961545 0.28884342 -0.118585944
-0.18398178 0.16447759 -0.3201841 -0.38247752 -0.19822043 -0.27810472 0.2090129 0.12282754
-0.46771744 -0.014357208 0.28674793 0.11764384 0.43001127 -0.11593809 0.09212579 -0.28373787
0.3329029 -0.37812328 0.14366326 -0.23785457 -0.26951075 -0.48920774 0.17902242 0.24934077
-0.11527571 0.20461433 0.10195182 -0.01323805 -0.6060863 0.082220055 0.055526853 0.2672649
0.0141659975 -0.41021454 -0.46181762 -0.17851329 0.084985934 -0.5581291 0.3924907 -0.34750772
0.10147569 -0.63693345 -0.18314408 0.14119937 -0.27529404 -0.013017674 0.100474425 -0.4948642
-0.25250968 0.28452343 -0.39683923 0.057731096 -0.096128404 0.077946216 -0.46803218 0.33067703
-0.2812978 -0.12652726 0.30152282 0.0031815162 0.13035749 0.34128967 -0.017025715 -0.11045111
00000000: 02ed cbbe 3123 45bd eb01 443e 76fb e13d
00000010: bf86 f3be e127 02bf 41f6 e1bc bcc1 e73e
00000020: b908 adbe a877 4f3e 1b56 a1be 11ba ba3e
00000030: 7da7 b6bd 66ae f5bd 49e3 933e 30dd f2bd
00000040: b865 3cbe d06c 283e 2cef a3be 18d4 c3be
00000050: 4cfa 4abe be63 8ebe 7a07 563e 018d fb3d
00000060: a978 efbe 7f3a 6bbc a0d0 923e 41ef f03d
00000070: 702a dc3e f370 edbd 72ac bc3d 1746 91be
00000080: 4072 aa3e 6099 c1be 761c 133e 2690 73be
00000090: 50fd 89be 7079 fabe a751 373e 3053 7f3e
000000a0: ac15 ecbd 6b86 513e 1ecc d03d 68e4 58bc
000000b0: 7928 1bbf fd62 a83d 2070 633d f2d6 883e
000000c0: 8018 683c a407 d2be 5c73 ecbe 30cc 36be
000000d0: 1b0d ae3d 8ce1 0ebf 8bf4 c83e 88ec b1be
000000e0: 7dd2 cf3d 120e 23bf 1f8a 3bbe 9196 103e
000000f0: 57f3 8cbe 1548 55bc 89c5 cd3d d75e fdbe
00000100: f348 81be 0ead 913e 832e cbbe 7177 6c3d
00000110: f8de c4bd 44a2 9f3d eaa1 efbe 804e a93e
00000120: 4406 90be 5d90 01be 3361 9a3e fc80 503b
00000130: 6f7c 053e 85bd ae3e 8379 8bbc 3134 e2bd
