model/pose_detector.tflite (tflite, 8680 bytes, 6 tensors)

arith.constant f4 [9, 10]
0	0xbd9a5a23	-0.075367235
1	0xbe90cd88	-0.28281808
2	0x3eb7172d	0.3575987
3	0x3ee15c2c	0.44015634
4	0xbe1e116b	-0.15436332
5	0x3ce6c709	0.02817108
6	0x3ec1dab2	0.37862164
7	0x3e25d19a	0.16193238
8	0x3e954ae4	0.291587
9	0xbf03b507	-0.514481
10	0xbd900302	-0.07031824
11	0xbba54873	-0.005044037
12	0x3ed94bc2	0.4244061
13	0xbe9ce894	-0.30646193
14	0xbeaddc5f	-0.33957192
15	0xbee32d2e	-0.44370407
16	0xbe876524	-0.26444352
17	0x3e97e7af	0.29668948
18	0xbee6db85	-0.45089355
19	0xbeb821bd	-0.3596324
20	0xbe5451f2	-0.20734385
21	0xbebe2199	-0.37135008
22	0xbe1017eb	-0.14071624
23	0xbed3f86a	-0.41400462
24	0x3e1b879d	0.15188451
25	0x3dfb3673	0.12266245
26	0x3ef07bce	0.46969455
27	0x3e5a46db	0.21316092
28	0xbec5f0fd	-0.38660422
29	0xbeddfb50	-0.433558
30	0xbd194fd5	-0.03742965
31	0xbd63d95e	-0.05562722
32	0x3ed6bab2	0.41939312
33	0x3e818a90	0.25301027
34	0xbef0a737	-0.47002575
35	0x3d870ddc	0.0659444
36	0xbe34fe5e	-0.17675158
37	0x3e92c440	0.28665352
38	0x3d506a4b	0.05088262
39	0xbea7cc50	-0.32773066
40	0x3d4796e7	0.048727896
41	0x3db095a4	0.08622292
42	0xbe40a769	-0.18813862
43	0x3ea62733	0.32451782
44	0x3ef74662	0.48295885
45	0xbe66b078	-0.22528255
46	0xbe6878ac	-0.22702283
47	0x3e589a68	0.21152651
48	0xbe9e8c3c	-0.30966365
49	0xbe8316da	-0.25603372
50	0x3edee262	0.4353209
51	0xbecbdba4	-0.3981601
52	0x3ef00712	0.46880394
53	0x3d5f0c7e	0.054455273
54	0xbe3a1901	-0.181736
55	0xbe9df913	-0.3085409
56	0xbf009681	-0.5022965
57	0x3e89c27d	0.26906195
58	0xbd98e611	-0.07465757
59	0xbef2316a	-0.47303325
60	0xbe9ee4c6	-0.31033915
61	0x3da5618c	0.08075246
62	0x3ec250da	0.3795231
63	0x3eda6399	0.42654112
64	0x3de9b2bc	0.11411044
65	0xbed1951a	-0.40934068
66	0x3e904595	0.28178087
67	0x3e43d9e7	0.19126092
68	0xbed349db	-0.41267285
69	0x3e3d7121	0.18500187
70	0x3e264c55	0.16240056
71	0xbe5b234c	-0.21400183
72	0x3e925644	0.2858144
73	0x3e8b275d	0.2717847
74	0xbdbfa526	-0.093576714
75	0x3e870152	0.26368195
76	0x3eab4621	0.33451942
77	0xbef0d72e	-0.4703917
78	0x3e3cdfaa	0.18444696
79	0x3f03b0f9	0.51441914
80	0xbe6826ad	-0.22671004
81	0x3e5cd1ab	0.21564357
82	0xbe34f4cc	-0.17671508
83	0xbdf8ae31	-0.121425994
84	0x3cc95ec1	0.024581315
85	0x3c932698	0.017962739
86	0x3e263b57	0.16233574
87	0x3e8a239d	0.26980296
88	0x3c51e9e4	0.0128121115
89	0xbe5e7429	-0.21723999

arith.constant1 f4 [10, 20]
0	0xbeda9b0c	-0.42696416
1	0xbea0c55e	-0.3140058
2	0xbe1cb12d	-0.15301962
3	0x3eb66bb7	0.35629055
4	0x3db2a470	0.0872277
5	0x3e1b7ed7	0.15185104
6	0x3e905b21	0.28194526
7	0x3ee0ad83	0.4388238
8	0x3d860809	0.06544501
9	0xbe441eba	-0.19152346
10	0x3e79cd36	0.24394688
11	0xbe2f0eb1	-0.17095448
12	0x3e0871c0	0.13324642
13	0x3dbf7848	0.09349114
14	0x3e8e42b7	0.27785274
15	0xbe862a37	-0.26204082
16	0xbe3d3d40	-0.18480396
17	0xbeca52dd	-0.39516345
18	0xbe5224b4	-0.20521814
19	0x3e82ff95	0.2558562
20	0x3d06bf7c	0.032897457
21	0x3e4a5f95	0.19763024
22	0x3c99936a	0.01874705
23	0xbed9574f	-0.42449424
24	0xbea422b5	-0.3205773
25	0x3ec3bd3e	0.38230318
26	0xbeb280f8	-0.3486402
27	0x3e90075b	0.28130612
28	0xbd5a05b4	-0.053228095
29	0x3eb5544a	0.3541587
30	0x3ea4701b	0.3211678
31	0xbe410075	-0.1884783
32	0xbea1b062	-0.31579882
33	0x3e8356b4	0.25652087
34	0xbe84d981	-0.25947192
35	0xbe79aaed	-0.2438161
36	0x3e4b5772	0.19857576
37	0xbeb5b159	-0.35486868
38	0x3ebae991	0.36506322
39	0xbdee8379	-0.1164617
40	0xbd3ed36d	-0.04658835
41	0xbe80a09e	-0.2512254
42	0xbecc99fa	-0.39961225
43	0xbd00ce48	-0.031446725
44	0xbd151790	-0.036399424
45	0xbeceb2bc	-0.40370739
46	0xbe4c402e	-0.19946358
47	0x3d9e1fce	0.0772091
48	0x3dcf4eba	0.10122438
49	0xbd44a4b5	-0.04800864
50	0xbea307ac	-0.3184179
51	0xbe99890e	-0.29987377
52	0xbec246a7	-0.37944528
53	0xbc3d6520	-0.011559755
54	0xbe861433	-0.26187286
55	0xbeb22eac	-0.34801233
56	0xbeb344fc	-0.35013568
57	0x3d52bf79	0.051452134
58	0xbe8eb565	-0.27872768
59	0x3e0fe84d	0.1405346
60	0x3dc6a9f1	0.097003825
61	0x3ecddd8a	0.40208083
62	0x3d1992e7	0.037493613
63	0x3e4687fb	0.1938781
64	0x3e9d30a0	0.3070116
65	0x3cc0720f	0.023491887
66	0x3e459a58	0.19297159
67	0xbe5747c6	-0.21023473
68	0x3e9bbb88	0.30416512
69	0xbee47e1b	-0.4462746
70	0x3dbf02f5	0.09326736
71	0xbde8a840	-0.11360216
72	0x3ddb54f0	0.1070956
73	0xbdaae6f8	-0.08344835
74	0x3e3dc183	0.1853085
75	0x3acdf0e9	0.0015712056
76	0xbd90fa2e	-0.07078968
77	0xbe55d129	-0.2088057
78	0xbd830576	-0.06397526
79	0xbe9c8e7f	-0.30577466
80	0xbeaea935	-0.3411347
81	0x3e0ffe63	0.14061885
82	0x3ed3c432	0.41360623
83	0xbe9a7fb4	-0.30175555
84	0x3edc17c2	0.42986876
85	0xbd6b116a	-0.057389654
86	0xbe0179c5	-0.12644108
87	0x3e6e1fc7	0.2325431
88	0x3e7dcc9c	0.24785084
89	0x3e9de6ee	0.30840248
90	0x39f8262d	0.0004733069
91	0xbed3fc99	-0.41403654
92	0x3d3c56a8	0.04598108
93	0xbed81164	-0.42200768
94	0xbeb2137c	-0.3478049
95	0x3ca6698e	0.020314004
96	0x3da483de	0.08032964
97	0xbed11b8d	-0.40841332
98	0x3ec59c7f	0.3859596
99	0xbc86627a	-0.01640438
100	0xbef38b29	-0.47567108
101	0x3e928636	0.2861802
102	0xbebb4941	-0.36579326
103	0xbe2fc065	-0.17163236
104	0x3ec3d4ba	0.38248235
105	0xbe7acba6	-0.24491748
106	0x3e145610	0.14485955
107	0xbdf1d7b9	-0.11808724
108	0xbea04baa	-0.31307727
109	0x3ec01ad7	0.37520477
110	0xbeaa1ad3	-0.3322359
111	0xbe1c4453	-0.15260439
112	0xbdd0ce54	-0.10195604
113	0xbd427ef8	-0.047484368
114	0x3e8dcd67	0.27695772
115	0xbe0180f4	-0.12646848
116	0xbd4f0309	-0.050540004
117	0xbdc38683	-0.095471404
118	0x3dfb161e	0.12260078
119	0x3e9f4b30	0.3111205
120	0x3ecad7cb	0.39617762
121	0xbcbde1f6	-0.023179036
122	0x3e503e86	0.20336351
123	0x3e6c3936	0.23068699
124	0xbeb17a29	-0.34663513
125	0x3ecd996d	0.40156117
126	0xbeb9001e	-0.36132902
127	0x3e9add22	0.30246836
128	0x3ece7d02	0.40329748
129	0x3eaf3509	0.3422015
130	0x3e6d9add	0.23203607
131	0xbe425720	-0.18978548
132	0xbd18a7f8	-0.037269562
133	0xbdfd2600	-0.123607635
134	0xbee5cc5f	-0.44882485
135	0xbeb28135	-0.34864202
136	0x3e9dde1a	0.30833513
137	0xbe39a277	-0.18128382
138	0x3eaf79fe	0.3427276
139	0xbe1d23f7	-0.15345751
140	0xbe48da33	-0.19614486
141	0xbeb7cede	-0.35900015
142	0xbe93da0d	-0.28877297
143	0xbe95ed4d	-0.2928261
144	0xbe962ea2	-0.29332453
145	0xbc0cde99	-0.008597993
146	0x3eab9f05	0.3351976
147	0xbe9a5a00	-0.3014679
148	0x3e502c0d	0.20329304
149	0xbeabbbf9	-0.3354185
150	0x3d4ffee4	0.050780192
151	0xbe05d31e	-0.13068816
152	0xbc5d3fa0	-0.013503939
153	0x3ea72ad6	0.3264987
154	0xbed4c2bd	-0.41554824
155	0x3e95b40c	0.29238927
156	0x39f1a169	0.00046087362
157	0xbe91d934	-0.28486025
158	0xbd88f9e7	-0.0668829
159	0xbeeb44a3	-0.45950803
160	0x3e6182c5	0.22022541
161	0x3dd7f146	0.10544066
162	0x3ea6d804	0.32586682
163	0x3d9ce047	0.07659965
164	0x3e5d6564	0.21620709
165	0xbecb6b13	-0.3973013
166	0xbd1a6f58	-0.037703842
167	0x3eddc0d7	0.43311188
168	0xbda1fa59	-0.07909078
169	0xbe3a5a0c	-0.18198413
170	0x3ec2bd34	0.38034976
171	0xbcb0101d	-0.021492058
172	0xbea184c4	-0.31546605
173	0xbea09ba4	-0.31368744
174	0x3dfb16e3	0.12260225
175	0xbd65ff69	-0.05615178
176	0x3d9b99b6	0.075976774
177	0xbdf76d55	-0.120814
178	0xbed2e4c0	-0.41190147
179	0x3e5d7ef8	0.21630466
180	0x3ec9ed95	0.39439073
181	0x3e5af44e	0.21382257
182	0x3ce4ebc5	0.027944455
183	0x3ecc6dfc	0.3992766
184	0x3d51ed18	0.0512515
185	0x3e7e24bd	0.24818702
186	0xbedd0647	-0.43168852
187	0x3edd8bf7	0.43270847
188	0x3b8d6839	0.004315403
189	0xbc91d24b	-0.01780047
190	0x3e8f2575	0.27958265
191	0xbeb84e49	-0.35997227
192	0xbed8764b	-0.4227775
193	0xbe9ca524	-0.30594742
194	0xbbedcba2	-0.007256941
195	0xbe8baa0d	-0.27278176
196	0xbeb0c606	-0.3452608
197	0xbe239ad1	-0.15977027
198	0x3cc8622d	0.024460876
199	0xbedc7665	-0.43059078

arith.constant2 f4 [9]
0	0xbe2eb754	-0.17062122
1	0xbd5b7d77	-0.05358645
2	0x3dad790d	0.08470354
3	0xbd80ace0	-0.06282973
4	0xbb9ec48c	-0.0048452076
5	0x3e9b2edc	0.30309188
6	0xbd947273	-0.07248392
7	0xbdd1f931	-0.102526076
8	0x3e44397a	0.1916255

arith.constant3 f4 [10]
0	0xbde557d9	-0.11198396
1	0xbda13a54	-0.07872453
2	0xbe928df5	-0.2862393
3	0xbda88e32	-0.082302466
4	0x3c27082a	0.010194818
5	0xbd98be61	-0.07458187
6	0xbd720aae	-0.059092216
7	0xbe25202f	-0.16125558
8	0xbda38002	-0.079834
9	0xbd639b8b	-0.05556826

sequential_2_1/dense_6_1/Add/ReadVariableOp f4 [20]
0	0xbd089ae4	-0.03335084
1	0xbbe738e4	-0.0070563424
2	0xbd2ee271	-0.04269642
3	0xbd063505	-0.032765407
4	0x00000000	0.0
5	0xbd589a0c	-0.052881286
6	0xbc80d015	-0.015724221
7	0xbc6e759a	-0.014554406
8	0xbcf5befb	-0.029998293
9	0x3bb53c17	0.005530845
10	0xbd2e1537	-0.0425007
11	0x3ce18946	0.027531277
12	0x00000000	0.0
13	0x00000000	0.0
14	0xbcb21ccf	-0.021742253
15	0x3d472744	0.04862143
16	0xbc51e102	-0.012809994
17	0xbc34f6b5	-0.011045148
18	0xbcdfc592	-0.027315889
19	0x3ae91f87	0.0017785885

sequential_2_1/dense_6_1/MatMul f4 [20, 66]
0	0xbe94ef1b	-0.29088673
1	0xbe3b7545	-0.18306454
2	0x3d72f63f	0.05931687
3	0x3db0a999	0.08626098
4	0xbe963490	-0.29336977
5	0x3e1ce5c4	0.15322024
6	0xbe504702	-0.20339587
7	0xbd81ec5a	-0.063439086
8	0x3e6f804f	0.2338879
9	0x3e444b40	0.1916933
10	0x3dbeac4b	0.09310206
11	0xbe727231	-0.23676373
12	0xbc9cb880	-0.019130945
13	0xbe6f3034	-0.23358232
14	0xbd4f26f1	-0.050574247
15	0x3e045067	0.12921296
16	0xbe0666db	-0.13125174
17	0xbd839bc6	-0.06426196
18	0x3e0d5c3d	0.13804717
19	0xbd8dcae4	-0.06923464
20	0x3e1119d5	0.1417001
21	0x3e1e6a05	0.1547013
22	0xbd1e6803	-0.038673412
23	0xbe98abc4	-0.29818547
24	0xbe05aaae	-0.1305339
25	0xbe6c2dba	-0.23064318
26	0x3e4642bf	0.19361399
27	0xbe313dd4	-0.17308742
28	0x3e14ba85	0.14524277
29	0x3e385ce3	0.18004183
30	0xbe58df7b	-0.21179001
31	0xbe754d60	-0.23955297
32	0xbe88a995	-0.2669188
33	0x3d324f72	0.043532796
34	0x3e17a2e5	0.14808233
35	0x3d948c8e	0.07253371
36	0x3e1fb3f3	0.15595989
37	0x3dca9197	0.0989105
38	0x3e559ec1	0.20861341
39	0x3cc4169d	0.023936564
40	0x3e5a5f99	0.2132553
41	0xbd64a24f	-0.055818852
42	0xbe4579cb	-0.19284742
43	0xbe6b5161	-0.22980262
44	0xbcadacba	-0.021200527
45	0xbe29d01a	-0.1658329
46	0x3e1288cb	0.14309995
47	0x3b42a194	0.002969836
48	0x3e0a256c	0.13490838
49	0xbd210aa2	-0.03931678
50	0xbe151e5d	-0.14562364
51	0x3dd08f52	0.10183586
52	0x3d8e752a	0.06955941
53	0x3be9fb6f	0.007140569
54	0x3d8597bf	0.06523084
55	0x3e0c4ff7	0.13702379
56	0xbe02d4a3	-0.12776427
57	0xbd34a47b	-0.044102173
58	0xbe83968e	-0.25700802
59	0x3e5b1cab	0.21397655
60	0xbe52eb62	-0.20597604
61	0xbe13d9f9	-0.14438619
62	0xbd36c436	-0.044620715
63	0xbe6b5902	-0.22983173
64	0xbe14b5f7	-0.14522539
65	0x3e516ea3	0.20452361
66	0xbdfc78c8	-0.12327725
67	0x3e146ccf	0.14494632
68	0x3e6dbeb0	0.23217273
69	0x3df27514	0.11838737
70	0xbddbada0	-0.10726476
71	0xbe2ee5d6	-0.17079863
72	0x3db2d832	0.08732642
73	0xbe4d4949	-0.20047487
74	0x3d09ce9a	0.033644296
75	0xbc731b1d	-0.014838007
76	0xbdde99dc	-0.1086919
77	0xbe1c79b8	-0.15280807
78	0xbdacaee3	-0.084317945
79	0xbe2007e9	-0.15628017
80	0x3e809609	0.25114468
81	0xbe526e79	-0.20549954
82	0x3cd864c7	0.026415242
83	0x3e0d051f	0.13771485
84	0x3dc38232	0.09546317
85	0xbe3992ef	-0.18122457
86	0xbdfb4cef	-0.12270533
87	0x3e4e080c	0.20120257
88	0xbda57648	-0.08079201
89	0x3d1b0499	0.03784618
90	0x3e1d11e1	0.15338852
91	0xbcd437fc	-0.025905602
92	0x3e74687c	0.23867983
93	0x3dcfb11b	0.10141202
94	0x3d984112	0.07434286
95	0xbe364853	-0.17801027
96	0xbe302f5f	-0.1720557
97	0xbdece10b	-0.11566361
98	0xbd8516e6	-0.06498508
99	0xbdb36055	-0.08758608
100	0xbc246f00	-0.01003623
101	0xbe035c50	-0.12828183
102	0x3e7c6ab1	0.24650075
103	0x3e77ac1f	0.24186753
104	0x3e58d418	0.21174657
105	0x3db8d54e	0.0902506
106	0xbc9ec2e2	-0.019380037
107	0x3e08608e	0.13318083
108	0xbe823073	-0.2542759
109	0xbd4f0ef4	-0.05055137
110	0x3de4ad0f	0.11165821
111	0xbe89c050	-0.26904535
112	0x3e5e3ccf	0.21702884
113	0xbe7cc46e	-0.24684307
114	0xbde7eba0	-0.11324239
115	0xbe45f077	-0.19330011
116	0x3dadbe3c	0.0848355
117	0xbe1170ca	-0.14203182
118	0x3e5c2f46	0.21502408
119	0xbe4be532	-0.1991165
120	0x3da20170	0.079104304
121	0x3db2c7df	0.08729529
122	0x3df54530	0.11976087
123	0x3d09a6c6	0.033606313
124	0x3c3509f8	0.01104974
125	0xbc3d2bce	-0.011546088
126	0xbe4a73e9	-0.19770779
127	0xbe796ce6	-0.24357948
128	0x3e030537	0.12794958
129	0xbe37ece4	-0.1796146
130	0x3df48fc0	0.11941481
131	0xbe3b9aaf	-0.18320726
132	0x3db02524	0.08600834
133	0xbde49a17	-0.11162203
134	0xbcee05e1	-0.029055538
135	0xbdc77cd5	-0.09740607
136	0x3db83b54	0.08995691
137	0xbd032137	-0.032014098
138	0xbe4cc3fd	-0.19996639
139	0xbdb49479	-0.088173814
140	0x3e128fab	0.14312617
141	0xbe2058a3	-0.15658812
142	0x3e19f594	0.15035087
143	0xbe7a7c95	-0.24461587
144	0x3dd72c55	0.105065025
145	0x3e751909	0.23935331
146	0xbe94769d	-0.28996745
147	0x3da872e5	0.082250394
148	0xbe35469f	-0.17702721
149	0x3bf5292a	0.007481714
150	0x3d9f9c33	0.077934645
151	0xbe9427af	-0.28936526
152	0x3d8d45c2	0.06898071
153	0x3e5ad6cf	0.21371005
154	0xbc63418b	-0.013870607
155	0x3e4caa42	0.19986823
156	0xbe5543e3	-0.20826678
157	0xbe068749	-0.13137545
158	0xbdf11652	-0.117718354
159	0xbe8e1927	-0.27753565
160	0xbe85a7a7	-0.2610447
161	0x3dee429e	0.116338
162	0x3dffe236	0.12494318
163	0xbca154dd	-0.019693786
164	0xbd05c733	-0.032660674
165	0x3e44a633	0.19204025
166	0xbe011773	-0.12606601
167	0xbe3a22ca	-0.18177333
168	0x3d33a095	0.043854315
169	0xbc9540ab	-0.018219313
170	0x3da78df4	0.08181372
171	0x3d4c2db1	0.049848262
172	0xbdd00ca7	-0.10158663
173	0x3e174ef4	0.14776212
174	0x3e0ee34b	0.13953893
175	0xbe3db664	-0.18526608
176	0xbe45cc65	-0.19316252
177	0x3e325a70	0.17417312
178	0xbd0490aa	-0.032364525
179	0xbd941023	-0.0722964
180	0x3e185007	0.14874278
181	0xbe834c76	-0.25644273
182	0xbe929497	-0.2862899
183	0xbe925965	-0.28583828
184	0x3db9b779	0.09068198
185	0x3e0b0c60	0.1357894
186	0x3e3b4514	0.1828807
187	0x3e39dfec	0.18151826
188	0x3e0227c3	0.1271048
189	0x3e43e38f	0.19129775
190	0xbda76600	-0.08173752
191	0xbe509793	-0.20370321
192	0x3e3f18fd	0.18661876
193	0xbdf8d501	-0.12150002
194	0x3dae4fe2	0.0851133
195	0x3e5e5af6	0.21714386
196	0xbe296246	-0.16541395
197	0xbe8b4b21	-0.27205756
198	0x3e6c371d	0.23067899
199	0xbd872ced	-0.06600366
200	0xbdf3324f	-0.1187483
201	0xbdd79d07	-0.105279975
202	0x3e00b3f0	0.1256864
203	0x3d661709	0.05617431
204	0xbe8a7530	-0.27042532
205	0xba423255	-0.0007408013
206	0xbe439898	-0.19101179
207	0x3e29084d	0.16507073
208	0x3e6cd6dd	0.23128839
209	0xbe5a6b92	-0.21330097
210	0xbdcb9d9c	-0.09942171
211	0xbe90c0bb	-0.28272042
212	0xbe898cc1	-0.268652
213	0xbe2e319e	-0.17011115
214	0x3bbabfdc	0.005699141
215	0x3b95510a	0.0045567797
216	0x3e0219e0	0.12705183
217	0x3d3c292c	0.045937702
218	0x3c9a864f	0.018862871
219	0xbe14ab98	-0.14518583
220	0x3d3f0836	0.04663869
221	0x3d8768da	0.06611796
222	0xbdd7ca33	-0.10536613
223	0xbe827aa6	-0.25484198
224	0xbd6d4710	-0.0579291
225	0x3e303923	0.17209296
226	0xbde9c2e2	-0.11414124
227	0xbe5b2b36	-0.21403202
228	0xbd8882c6	-0.06665568
229	0x3e361978	0.17783153
230	0xbe03e013	-0.12878446
231	0xbe75d2b1	-0.24006154
232	0xbe17062c	-0.14748448
233	0xbe3dfdca	-0.18553844
234	0x3e1315fa	0.14363852
235	0xbe0afcec	-0.13573045
236	0xbdccf7bb	-0.10008188
237	0xbe274c20	-0.16337633
238	0xbda8e3e4	-0.08246592
239	0x3cc787ad	0.024356687
240	0xbe2bffa0	-0.16796732
241	0xbcf639cd	-0.030056858
242	0xbe38c099	-0.1804222
243	0x3e5aede0	0.21379805
244	0xbd84b654	-0.06480089
245	0xbccf4aec	-0.02530428
246	0x3d29b391	0.041431013
247	0xbe48f742	-0.19625571
248	0x3e34bfda	0.1765131
249	0x3dd41c4f	0.10356962
250	0x3dba2cd0	0.090905786
251	0x3e032cd9	0.12810077
252	0xbd1b53ae	-0.0379216
253	0x3d71848d	0.0589643
254	0xbe8c2b7e	-0.27376932
255	0x3e6c0004	0.23046881
